MNIST_training/simple_nn.ckpt (torch, 440220 bytes, 6 tensors)

fc1.weight f4 [128, 784]
00000000: 7020 683c c283 653c 4bea 733c 34a6 c93c
00000010: bcef 523c 2734 d73c 544e 6d3c 682a 093d
00000020: 4df6 de3c 0a30 203a 9ff7 253d 6dcf 6fbc
00000030: 8f52 71bb 61a2 cc3c 1fce c4bc 4a5c e83c
00000040: 277f 56bc 928a 143d 73b2 fc3c 932b bf3c
00000050: d35b 283d acb1 4cbb 8c3b d9bb 5633 503c
00000060: cec0 85bc 4ae2 ecbb 8d0b 81bc 2a8f 8cba
00000070: 13e8 df3b eea9 193c 0ffe a43c 245f 27bb
00000080: 8591 bebc 0680 24ba 514f bdbc f7e3 a5bc
00000090: 2910 113c 1124 4cbb 75cf 253d 13ad 203c
000000a0: fd56 e9bb 7178 1cbb c43e 87bc 2597 f7bc
000000b0: c347 dd3b e905 f23c 566c 0a3d a49a a23c
000000c0: 9a49 963c 381f 983c dffc 913c bbcd 563c
000000d0: d78a ce3c f73f c83c 07c4 ee3c 4cdb abbb
000000e0: 77a3 ff3b c0bf eb3c b731 f63c 66af df3c
000000f0: 6b66 d63c ef0d 8cbc 9062 1c3d 588e c53c
00000100: af86 0c3d 332a e53c 32d3 6f3d 5635 493d
00000110: a3de 993c f3f8 373d 910b 333b d9a3 6fbb
00000120: aa89 253d 83a1 7c3d 6290 bfba 25f6 a3bc
00000130: 9780 75bb 8d23 92bc 7ab6 973c d422 78bc
00000140: cee7 3c3d 387d 82ba 14b1 c8bc ba2b 233a
00000150: 96e2 c53c e161 79bc fab1 b1bb c1a6 4f39
00000160: b61d 263d ac10 633c f4a3 093d 5926 5d3d
00000170: 50a5 8f3d 6012 b73d 4eb1 8d3d cfd6 923d
00000180: a3f5 d33d c3e9 d83d 80a0 1f3d 24fc d3bb
00000190: 45a6 c03a 0aaa 7cbd 259d 9ebd 9fb4 3a3c
000001a0: 0806 35bd 3b7c 52bd 3896 33bc 82ce 06bd
000001b0: 536d 05bd ad57 193c 7653 bdbc 068d 163d
000001c0: 46cf ac3c fc81 dc3b 3c2b 8a3c 1874 0dbb
000001d0: c645 54bc 8df4 b13c 60ea 003c 1c99 8b3d
000001e0: 28ac 3b3d af2f 113e f01c 2c3e feb7 b43d
000001f0: 9fe6 7f3d c50d a4bc f1e1 68bc de21 fabd
00000200: 3fd4 e9bc e714 dbbd 116e f4bd a25f 2fbd
00000210: dd1a 13bd cf12 d1bd 8348 a0bd 9564 7ebd
00000220: d344 d5bc fcad 353d 6542 67bb c265 103d
00000230: 1aad 353c 0f0d aabc 8fdb 903c ad78 e73c
00000240: 0a4c 163d fffc 25bc 620f 5c3d 748e 653d
00000250: 6282 3c3d de32 003e b995 123e 2458 433d
00000260: f499 e2bb a84e 953b 531f debd 842f 5ebd
00000270: 714a e8bd a3d4 55be d8e7 e9bd bbe4 0ebe
00000280: be60 47be ece3 c0bd be4a d7bd 802d 25be
00000290: c1bb 95bc 234b abbb 7214 1b3c b24d 00bc
000002a0: 4644 e83c 2a01 0cbc bc44 8e3c c828 8a3b
000002b0: 4324 7bbc 5264 143d 5c0d cd3d 53c4 dc3d
000002c0: 5045 b53d ae33 603e cec9 a83e 2568 6e3e
000002d0: 2d8f 033e dc45 563d fce3 95bd 1869 2e3c
000002e0: c3fd f03d 3255 19be b0bf 27be fa13 02be
000002f0: a661 d3bd 4ba8 dbbd 07db f7bd 95f7 33be
00000300: 4665 3abd 5fd7 53bc 5999 ccbc b25f 04bc
00000310: c688 e33c 4735 953c 7fff 7b3c 4020 153c
00000320: 0900 683d e9c1 943d 5b88 ab3d 76ae b03d
00000330: 1c0d b63d 9809 0e3e dd9d 9b3e 53fc b03e
00000340: 9e3d 753e 6d75 b63d 6661 0d3e fc72 e13d
00000350: 2aff 103d b4a6 1e3d 45c2 bbbd ad18 323c
00000360: 858b a9bc eff9 99bb 9257 7ebd e0d0 92bd
00000370: e804 8fbd 56d9 433c 7520 183c 309f 1ab9
00000380: 7b7a c73b e908 8e3c bca2 b8bb d1a0 c33c
00000390: 5350 583d e0af 9c3d 904e 483b c6ff e23d
000003a0: caa7 c13d 88fa 2a3e be8d d73e 69bb f63e
000003b0: 41ea 923e b673 543e 3a0f c23e 5e71 a93d
000003c0: bec7 b63c e362 253e b3c6 173d e470 b3bd
000003d0: b381 643d 433f bbbc e067 9d3d 308f 36bd
000003e0: d7c0 01bd 23f8 05bd 219c 9b3c 71c2 a4bc
000003f0: 7045 043c 0777 cf3c b84a 643d 4e38 b53c
0.01416789 0.014008464 0.014887403 0.024615385 0.01287454 0.026269985 0.014484007 0.033487707
0.027217055 0.0006110674 0.040519353 -0.0146368565 -0.003682289 0.024979772 -0.024024067 0.02836432
-0.013091839 0.036264963 0.03084681 0.023336207 0.041103195 -0.003123383 -0.006629413 0.012707552
-0.016327288 -0.007229124 -0.015752578 -0.0010723819 0.0068330853 0.009378893 0.020140676 -0.0025538886
-0.023262748 -0.00062751805 -0.02310911 -0.020250304 0.008853951 -0.0031149427 0.04048105 0.009806889
-0.0071209655 -0.00238755 -0.016509421 -0.030223439 0.0067529394 0.029543834 0.033794723 0.019849129
0.018345643 0.018569574 0.017820774 0.013110573 0.025212688 0.024444563 0.029146207 -0.005244648
0.007801469 0.028777957 0.030053003 0.027305316 0.026171884 -0.017096488 0.038179934 0.024115726
0.03430813 0.027974224 0.05855102 0.04912313 0.01878292 0.04491515 0.0027320127 -0.0036566167
0.04041449 0.061677467 -0.0014615173 -0.020014832 -0.0037460679 -0.017839218 0.018519629 -0.015145022
0.046119504 -0.0009955531 -0.0244985 0.00062244723 0.024155896 -0.01522109 -0.005422828 0.00019803179
0.04055568 0.013858955 0.033603624 0.05399165 0.07013953 0.08939052 0.06918584 0.07169878
0.10349586 0.105914615 0.038971424 -0.0064692665 0.001469799 -0.0616856 -0.07744817 0.0113956025
-0.044195205 -0.051388007 -0.010961108 -0.032911785 -0.032574963 0.009359282 -0.023111086 0.036755584
0.02109493 0.0067293625 0.016866319 -0.002158409 -0.012956088 0.021723056 0.007868379 0.06816313
0.045818478 0.14178346 0.16807914 0.08824156 0.062475797 -0.020026097 -0.014214025 -0.12213491
-0.02854359 -0.10697346 -0.11935056 -0.042815812 -0.03591429 -0.102086656 -0.078263305 -0.06210764
-0.026033795 0.044355378 -0.0035287377 0.035253294 0.011088634 -0.02075818 0.017682819 0.028255785
0.03669361 -0.01013112 0.053725608 0.056044057 0.04602278 0.12519404 0.14314927 0.04769148
-0.0069153253 0.0045564957 -0.10845818 -0.054244533 -0.113423236 -0.20881896 -0.11421174 -0.13954441
-0.19470498 -0.09418473 -0.10512303 -0.16130638 -0.018278005 -0.005227463 0.009465324 -0.007831024
0.028352868 -0.008545199 0.01736676 0.0042162873 -0.01532847 0.036228485 0.10012314 0.107796334
0.08851111 0.21894714 0.32966465 0.23281915 0.12847586 0.052312717 -0.07318875 0.0106451735
0.11767151 -0.14973906 -0.16381717 -0.12702933 -0.10321359 -0.10725459 -0.12102323 -0.17574914
-0.045506738 -0.012929766 -0.024975466 -0.008079456 0.02777518 0.018213881 0.015380739 0.009101927
0.05664066 0.07263548 0.08375617 0.08627026 0.08889219 0.13870847 0.30393878 0.34567508
0.23949286 0.08909116 0.13806686 0.1100826 0.035399593 0.0387332 -0.09167913 0.010870141
-0.02069641 -0.004698984 -0.062095232 -0.07168746 -0.06983358 0.011953672 0.009285082 -0.00014745886
0.006087599 0.017338233 -0.005634634 0.023880394 0.05281098 0.07650733 0.0030564405 0.11083941
0.09455831 0.16697133 0.42100328 0.48189858 0.28694347 0.20747265 0.37902242 0.08273576
0.022312041 0.16151004 0.03705473 -0.087617666 0.055787753 -0.022857314 0.07685828 -0.044570148
-0.031678047 -0.032707345 0.018995347 -0.020112248 0.008073196 0.025325311 0.05573532 0.022121575

fc1.bias f4 [128]
00000000: 99ee 3cbc bf41 c6bc 6f20 953c c49a 94ba
00000010: 79d1 913c 2d53 c83b 5fa0 a8bb 6926 adbc
00000020: 1deb 333c f547 9c3c 677a 913a 4184 c53c
00000030: 2c1d e63c a1dc 4cbd fe1e 073c 0f81 02bd
00000040: bbd2 d4bb 26cb fabc c4ef 0ebd 9173 21bd
00000050: 4aab c33c 5f4e 8abc a0d4 5b3a 8881 1dbd
00000060: 7551 573d 00f3 ce3c bb7c a93c f9d1 e23c
00000070: 0aa6 c73c aff7 843c 6bd9 8c3c bb12 81bc
00000080: b3c5 363c f583 e2bb b26c 3f3d f238 6cbd
00000090: 63ac d83c 9528 763b 2fb5 03bc 8df2 25bd
000000a0: 4875 b8bb cc1d 183c 587f a43c 8ca9 ae3c
000000b0: 098d 6cbc cd76 a33b 739c fbbc 83b1 323b
000000c0: ced3 e73a 0510 aebc b5fa 96bc 9b2e a2bc
000000d0: 1088 17bd dc90 8ebc 7937 3bbc a3c3 3fbc
000000e0: 5295 f3bc 5c78 95bc 79d5 2cbd 8e22 2ebd
000000f0: 92b9 eb3c 88c4 43bc bf5b 66bd b665 27bc
00000100: 0251 b9bc 46ff 3fbd 0c8f b8bc ae5d 83bb
00000110: bf92 873c c5e5 d93b 6422 573d 965b 18bd
00000120: 0099 07bc 476b 86bc eab2 29bd ab15 f0bb
00000130: d6e5 8dbc 0d68 0bbd f85b 90bc e330 a4bc
00000140: 4d9d ac3c ba6d acbc 43de 60bc bbcf ebbc
00000150: 78d2 16bd 7fcf 05bb 3d60 323c f7f0 3c3d
00000160: 1f65 8a3b efd4 0f3c 0220 653c 4592 c43c
00000170: 68d9 4b3b 7024 b23c 7df2 9db9 29cd 2ebd
00000180: c239 2b3d ff46 493d e249 c93b f802 cebc
00000190: 5b21 5e3c 0860 1e3c 89af 21bd dbce 573c
000001a0: 3723 333d ed44 20bd 3f62 24bc 5ddb 86bb
000001b0: e511 b0bb bded 263c 1fe7 263d 6755 bc3b
000001c0: 13f8 123d 736a 0dbd e374 a839 5a12 73bc
000001d0: 7217 22bd 8130 933c 69b1 f33c 5931 0a3c
000001e0: 6e84 2ebd 4184 26bd c605 debc da9a b53a
000001f0: f12d 43ba 0942 3c3d bfa9 91bc 0065 7bbd
-0.0115314955 -0.024201272 0.018203942 -0.0011337628 0.01780008 0.006113431 -0.005146071 -0.02113648
0.010981348 0.01907728 0.0011099101 0.024110915 0.028090082 -0.050015096 0.008247135 -0.03186136
-0.0064948476 -0.030614447 -0.034896627 -0.039416853 0.023885388 -0.016883073 0.00083858706 -0.03845361
0.052567918 0.025262356 0.020689359 0.027688013 0.024371166 0.016231386 0.017193517 -0.015756002
0.011155534 -0.006912703 0.04673452 -0.057671495 0.026449388 0.003756081 -0.008038803 -0.040514518
-0.0056292154 0.009284448 0.020080253 0.02132108 -0.014437922 0.0049885274 -0.03071425 0.002726645
0.0017687024 -0.021247873 -0.018430093 -0.019797614 -0.036994994 -0.017403059 -0.0114268 -0.011704358
-0.029734287 -0.018245868 -0.04219577 -0.042513423 0.02877501 -0.011948712 -0.05623984 -0.010217121
-0.022621635 -0.046874307 -0.022529148 -0.00400897 0.016549466 0.006649705 0.05252303 -0.03719672
-0.008276224 -0.016408576 -0.04143039 -0.007326802 -0.017321508 -0.034034777 -0.01762198 -0.020042842
0.0210711 -0.021048415 -0.013724866 -0.028785577 -0.036821812 -0.0020417867 0.010887203 0.04612824
0.0042234804 0.008778795 0.013984682 0.023995528 0.0031104926 0.02174589 -0.0003012604 -0.042676125
0.04180313 0.049139973 0.0061428407 -0.0251479 0.013557757 0.00966645 -0.039474044 0.013171877
0.043734755 -0.039128233 -0.010033189 -0.0041155056 -0.005373227 0.010188517 0.040747758 0.0057474854
0.035881113 -0.034525346 0.00032130544 -0.014835918 -0.03957314 0.017967464 0.029747682 0.008434617
-0.042606764 -0.04065347 -0.027102362 0.0013855353 -0.00074455055 0.045961414 -0.017781137 -0.061375618

fc2.weight f4 [64, 128]
00000000: 4606 703d 4a21 dc3b b4a2 5b3d 289f 6ebd
00000010: cb0c 9abd d5e0 8cbd 64bf c83c 4307 593d
00000020: 4472 8bbb af10 ecbc 450c b2bd caef bf3c
00000030: 0885 f53b 19fc 693b 3a12 a1bd bb03 04bc
00000040: deda 12be ad0c abbd 3287 c13c 4c1a 88bd
00000050: dc10 283c 30e7 82bd c7b4 293d 893c 703d
00000060: 063a 153c 6a91 8bbd c030 cdbd c1ed f43c
00000070: a0b5 82bd b4ef b83d 5d3d 3abd 879f 083d
00000080: b1dc cabd 7715 95bc 1179 ad3c d87a a2bd
00000090: 4076 073c 410f 82bd 8843 8d3d 9c58 673c
000000a0: 5e7e d3bc f8d1 a5bd 1611 8c3d c633 8fbd
000000b0: f4e2 45bd bda9 c1bd 2a51 20bb 380e 88bd
000000c0: 0e92 f63c c653 c53c 3fdf d5bd ebca 5f3d
000000d0: 1bed 8a3d b704 7b3d c7a8 e4bd 4139 03bd
000000e0: c8c7 063d 4fd7 8c3d be82 4dbc 75c9 0b3d
000000f0: 2674 c0bd ff53 66bd 4d12 d83c 3a95 92bc
00000100: a3c4 c337 e226 33bd ee7e efbb d8a6 3cbd
00000110: 62d8 f5bb 7ac6 24bd ca3d bbba 5f81 b2bc
00000120: d6b4 ec3c 863b 83bd 5da7 643d 35e3 adbc
00000130: a9c2 833c b157 4fbd f16d 9cbd 0644 20bd
00000140: bd09 e13c 64e2 60bd 709e 12bd 0849 133d
00000150: 346a c33c 1e87 063d 597d 46bc 95ae 4fbd
00000160: d62f 5c3c 7d92 58bd e1e1 ecbc 1084 3cbd
00000170: a456 dcbc be92 d3bd 5f54 55bd 295b 81bd
00000180: 6a10 053d c58f 37bd f8b4 91bd 953f 383d
00000190: 0d5d 033d c5d7 a23c c00a 1bbd 1bc5 7f3c
000001a0: ecec d7bd 8bdf 423b 275a 8fbd c6a0 503d
000001b0: 868d 7fbd b183 113c a58c cdbd 8a13 bbbc
000001c0: 05e7 53bd 63e6 4f3d 4189 37bd 009b 49bd
000001d0: 6a18 663d 494e 5bbd da55 efbd ede2 863d
000001e0: 8fe7 913d 6144 a7bd 25fe b4bd 02bb b5bc
000001f0: d366 853d a8cd d23c ce96 ebba bee5 6a3d
00000200: 507e 7a3e 1c2e 9f3d 04e7 873d 5980 bdbd
00000210: 1e71 6e3d 05c2 7abc 56f0 c33d c64e efbd
00000220: 3589 1e3e 38e9 7dbc fdb9 853e de1e d2bd
00000230: 4a6a 81bc d1fb 713c 3ac8 1a3f 8894 e5ba
00000240: fe00 20bd 3c73 39bc 3702 5a3d 5be7 9d3d
00000250: c019 9cbb 3272 64bd 4b99 84bb 6a45 5bbe
00000260: 3448 48bd 94f0 b73c 182a 0d3d 3bc3 7c3e
00000270: d021 453d a02b 083d d49e f43d c0b6 693d
00000280: 2b59 bbbc 7e74 693e e0a4 4b3e 3f8f 2b3d
00000290: 87cb 4d3d 3e04 0f3b f398 61bd 34b4 8cbb
000002a0: bcac 4a3d 4696 a63d 9b93 fabc 5a32 cfbc
000002b0: d120 7e3c 0b27 bcbd 01d0 a9bd 2264 05bb
000002c0: 108f c1bd 323a 6ebd 6872 4a3d c0f5 043d
000002d0: 0fa9 fabc 4ff4 473e 9fcf 6abd e605 6f3d
000002e0: db46 3f3d 3d7e 77bc ab92 4d3c 46d1 d7bc
000002f0: 5142 c93e b846 dcbe e014 93bc 7246 2b3d
00000300: 6a7b 22be a68a c8bc ddb1 0e3e 4321 943c
00000310: 3de9 dcbd e8f1 b23e bcae a93e 9528 b2bd
00000320: 9ace 443e 0105 c13d 7924 88bd 4c96 353b
00000330: 37f1 783c 0844 cabd 5c7c b83c 0858 913d
00000340: 94b1 a03e 607e 0a3d fbc5 2a3e aeff 91bd
00000350: c0bc f33b 4145 46be 782c 7cbc 5abf 96bd
00000360: bdc6 fd3d 3552 593e 626e 173e 9e07 37bd
00000370: 6b42 733e 03de db3c e97c 8b3d 51b3 373e
00000380: 98a0 9e3e 78f2 b1b8 957a 37bd b449 abbd
00000390: 0398 993d d5e6 c2bd c777 86bb bc92 d8bd
000003a0: fb73 9ebc 6ac5 70bd 5e11 b1bd d9d4 36bd
000003b0: e9e3 82bd 740b 163d f859 fbbd 2c57 bc3d
000003c0: ab7d 673d 1c33 53bd b6c0 2c3b 754a 30bf
000003d0: dc52 603d 5c9f 803d 20d1 503d 2033 32bd
000003e0: d400 563d e499 b0bd f83e 08be bf02 3f3c
000003f0: cb44 773d eeb4 e33d 9a69 143d 5d4d ac3b
0.058599733 0.0067178356 0.053621963 -0.058257252 -0.07521971 -0.06878821 0.024505325 0.05298544
-0.004255565 -0.02881655 -0.086937465 0.02342977 0.007492665 0.003570324 -0.078648046 -0.00805753
-0.14341304 -0.08352027 0.023624036 -0.06645641 0.010257926 -0.06391752 0.04143217 0.05865148
0.009108072 -0.06814845 -0.10019064 0.029898526 -0.063822985 0.09030095 -0.045468677 0.033355262
-0.09905375 -0.018198712 0.021175893 -0.07933587 0.008267939 -0.06350566 0.06897646 0.014120247
-0.025817093 -0.08096689 0.068391964 -0.06992297 -0.048312142 -0.09456203 -0.002446244 -0.06643337
0.030098941 0.024087798 -0.104429714 0.054636877 0.067835055 0.061283793 -0.11165004 -0.032037023
0.03290537 0.06877004 -0.012543378 0.03412767 -0.093971536 -0.05623245 0.026375914 -0.017893422
2.3337378e-05 -0.043738253 -0.0073088324 -0.046057552 -0.0075026015 -0.040228345 -0.0014285382 -0.021790205
0.028894823 -0.064078376 0.055823673 -0.021226505 0.016084032 -0.05062074 -0.07638157 -0.039127372
0.027470464 -0.054903403 -0.03579563 0.03595832 0.023854353 0.0328437 -0.012114846 -0.050703604
0.013439139 -0.052874077 -0.028916301 -0.046024382 -0.026896782 -0.10330723 -0.052082416 -0.063162155
0.032486357 -0.044814844 -0.07114595 0.04498251 0.032071162 0.019878278 -0.03785205 0.015610958
-0.10543236 0.0029735293 -0.06999617 0.050934575 -0.062390827 0.008881495 -0.100365914 -0.022836465
-0.05173399 0.050756823 -0.04480863 -0.049220085 0.056175627 -0.053541455 -0.11686297 0.065862514
0.071242444 -0.08167339 -0.08837537 -0.022183899 0.06513753 0.02573283 -0.001797402 0.057348005
0.24462247 0.077724665 0.066358596 -0.09252996 0.058213346 -0.015305047 0.09567325 -0.11684947
0.15482028 -0.015497498 0.2611846 -0.10259794 -0.015797753 0.01476951 0.6046177 -0.0017515579
-0.039063446 -0.011318978 0.05322477 0.07710143 -0.004763812 -0.055772968 -0.0040465943 -0.21413198
-0.048896983 0.022453584 0.03446397 0.2468385 0.04812795 0.03324473 0.119443566 0.05705905
-0.022869667 0.22798344 0.19887114 0.041884657 0.050242927 0.0021822597 -0.055077504 -0.004293943
0.04948114 0.08134131 -0.030587962 -0.025292564 0.015510754 -0.09187134 -0.08291627 -0.0020353873
-0.09451115 -0.058160968 0.049425513 0.032460928 -0.030598192 0.1952679 -0.05732691 0.058355235
0.046698432 -0.015105781 0.012547175 -0.026344907 0.39308408 -0.43022704 -0.01795429 0.04181523
-0.15867391 -0.024480175 0.13935037 0.018082267 -0.10786674 0.34950185 0.33141124 -0.08699147
0.19219437 0.094247825 -0.066475816 0.0027707992 0.015194229 -0.09876257 0.022520237 0.07096869
0.3138548 0.033811927 0.16677086 -0.07128845 0.0074382722 -0.19362356 -0.015391462 -0.07360716
0.12391422 0.21222766 0.14788201 -0.044685 0.23755805 0.026839262 0.06810934 0.17939498
0.30981898 -8.485181e-05 -0.044794638 -0.08363667 0.07499697 -0.09516684 -0.004103634 -0.10574862
-0.019342413 -0.05878202 -0.08645891 -0.04463658 -0.06391127 0.036632016 -0.122730196 0.09196314
0.05651633 -0.051562414 0.0026359982 -0.6886361 0.05476652 0.062803954 0.050980687 -0.043505788
0.052246884 -0.08623102 -0.1330527 0.01165837 0.06036834 0.11118494 0.036233522 0.005258246

fc2.bias f4 [64]
00000000: b1ae f6bd a3b9 593d 1979 28bd 022e a23d
00000010: d0fa a03e 9c1e 62be 4d99 b6bc 05fb 8abd
00000020: 29a3 3dbe 5f34 1abd e258 32be c69b 793d
00000030: 2d3f 753e 75ea 0b3e a053 4abd 38bc 3cbe
00000040: 24c9 b53d 6ae4 a3bc 03e8 c13d e467 cabd
00000050: 3396 89bd afae f73d 269e de3b 0b0d 273e
00000060: 3b12 dd3d 7e95 93bd 1db0 4c3e 109f 863e
00000070: 2baf 20be fd48 cebd d377 b93d f0f4 f8bd
00000080: ba66 8e3e 0230 003e 20f6 9fbd ac42 883c
00000090: 73c4 4fbc 55c3 7a3e 7964 2a3d f08e b83d
000000a0: 2765 053e 4b1c d93c 27d2 0fbe b57b da3d
000000b0: 213f 073e 6410 e6bd f43b c2bc 919f 213e
000000c0: 5807 293e cd11 7a3d f9f7 64bc 29a4 aabd
000000d0: 37ba 8d3c e282 98bc 2b2f d83d 560a 5bbc
000000e0: cd05 0c3d ff90 8d3d 623d 06be 1c87 423d
000000f0: f13f 263d cf69 163e 197f acbc 773f 523c
-0.120450385 0.053155553 -0.041131113 0.079189315 0.31441355 -0.22081989 -0.022289896 -0.067861594
-0.18519272 -0.0376476 -0.17416719 0.060939573 0.23949881 0.13663657 -0.049396157 -0.18431175
0.08876255 -0.020006377 0.09468081 -0.09883097 -0.06718101 0.12093865 0.006793755 0.16313569
0.10794493 -0.07206248 0.19989057 0.2629323 -0.15691821 -0.10072515 0.09056058 -0.12156093
0.2781275 0.12518314 -0.078106165 0.016633354 -0.0126811145 0.24488576 0.041599724 0.09011638
0.13026868 0.026502749 -0.1404501 0.106681265 0.13207676 -0.11233595 -0.023710229 0.15783526
0.16506708 0.061052132 -0.013975137 -0.08332092 0.017300708 -0.018617097 0.105558716 -0.0133691635
0.03418522 0.069124214 -0.13109353 0.04749213 0.040588323 0.146888 -0.021056699 0.012832514

fc3.weight f4 [10, 64]
00000000: 9fcf c7bd f719 523e 0a1b 47bf 7bbc 89bc
00000010: 6e9b b7bd 7058 683e 2cb6 82bd 44df 923e
00000020: f08e 453e 4bcb 8fbe 6cb3 213e 9692 113e
00000030: f648 903e aa72 893d dfba c83d be0b 0d3e
00000040: d74d 26bd 3c20 05be 9b9a 18bf 89a3 f03c
00000050: 3dad ee3e 3774 d9be af7b 363e 80d2 6f3d
00000060: aa58 853c 83aa a13c ce81 babe fd5d aebe
00000070: 7841 0fbf 9759 66be 45ef acbe e1e7 1d3e
00000080: baa8 9fbe 0bc2 91be 9851 07bd 02ae 643e
00000090: 82e5 8bbd 36c9 97be ba5a b3bd 1b09 91be
000000a0: cd42 b3be 17f0 55be 98d2 36be cea8 3f3e
000000b0: 66e2 7dbe 9911 163c 983e 17bd 611d c73e
000000c0: b759 52bd d760 c03d af2b dbbe c1b0 8b3d
000000d0: 71c9 aa3c 4735 dfbe d38a f73d 930c a3bd
000000e0: 8b52 233d 3b59 fabe 7068 c33d c7b6 ac3d
000000f0: a8d1 87be 3780 1ebc 21a5 453d 7acf bb3d
00000100: 971c 6cbd 81dc b1be 0dd7 7a3e c3ea 663e
00000110: 5b43 cbbe 53c9 1b3d f4b4 753e a0e4 2d3e
00000120: b712 cabe 1e48 b6bd 9e82 293d b047 bd3d
00000130: 0a4f 81be 0ce4 53bd bdfe d1be c570 9b3e
00000140: 9095 65be f32c 3f3c d0df 673c 91af aebb
00000150: 1ced d7be 7b61 8e3e e832 01bf 35f4 c7be
00000160: 7c1b 0fbf 5d1d 31be b7eb 763e ce75 f8bd
00000170: ec83 263e 1108 a8bd 96c6 8ebe 7630 823e
00000180: 964c 143e a501 e63d df2b 1f3d bf82 53bf
00000190: 6cd5 25be 128d 61be cb1f 5b3e 57d1 1fbd
000001a0: d553 63be 2727 77be 6e38 5f3e 5ce1 5ebd
000001b0: b480 d2bd 57e0 123c e6fb b63d 1c0d 17bd
000001c0: c4b0 bdbe 4f84 d93d 4606 723e 8e4f e5bd
000001d0: b920 1bbd 526c 523e 1146 03bf 9577 523d
000001e0: 68b8 883d 7ce8 7d3c 25c0 a5be e808 8dbc
000001f0: 01af 3a3e 251a 223d d97a 2c3c 1e56 09be
00000200: 3fe1 6bbd 1e46 073e 985b 9c3c 67cf c6be
00000210: 7712 73bd a0e1 15be ed37 16bf c7ad bdbe
00000220: dcd4 1f3e b0c5 803e 133f 8f3d 1b5d eabc
00000230: f646 01be 72cb 8abe 535e 903e 08ce a63d
00000240: 73e2 fe3d 1de9 743c 2622 6f3e 8219 8dbe
00000250: 6b4c b83d c1a0 ddbe c775 753e d388 023e
00000260: 4f39 043e 4718 033d a079 99be c079 85bd
00000270: 9e7d 753e 5d44 633d a9b7 edbe 97d2 1cbd
00000280: 4c83 8c3d 1b31 663d 8494 cabd a719 e93d
00000290: f948 1cbd fd84 8bbe a86e b1bd 4059 623d
000002a0: a4d6 a6be ad06 943e 7611 0dbc 78dd 693e
000002b0: 56e0 763d 8019 d33c 3239 613c 913e 03bd
000002c0: 7295 43be cdb0 e7be f6f9 c03d d847 fa3b
000002d0: 3134 913d 716d 9c3e d054 9cbe c40d 753d
000002e0: 8361 963d d52d 6cbe d61c 5ebe 1366 d53d
000002f0: f502 a6be 0f55 483e 5bd6 463e 94f7 28be
00000300: 9814 0cbc 1d40 053d c6a3 083e 3f23 433d
00000310: 3c33 223e 53ef 3a3e f2d8 71b9 b8ef 20be
00000320: 3e93 3e3e d7df 6e3e bb26 6f3e acf6 a63c
00000330: be7c dfbe f0b7 aa3d 38e5 a0be 146f bebd
00000340: 4b55 ffbe 3ca7 e7be 861a c93d 06cc 323e
00000350: f978 b7be 5360 24be 56de 98bb f04b 003e
00000360: 9de7 30be de42 9bbe 03b0 fbbc 6948 aabe
00000370: deb4 3fbd 1077 0d3c 31e1 9d3e 55e4 0abe
00000380: f2c5 a23d 94d2 07be af5d b53c 5aa7 cdbc
00000390: 31bf e33d 4eea 183e 709e b53e b624 96bc
000003a0: f2ec dabd 3211 b5be 752f 76be 0a76 b6bd
000003b0: ae66 41bf 39e9 53bd 5f44 9a3d c0b6 cdbd
000003c0: 761c 99bd 2bc5 3b3e b962 fe3d 158f c6bc
000003d0: c9e0 eebd 2a9d 3d3e 6eab 15bd f2f4 8a3d
000003e0: 22a0 bcbc 1a0f 993d e9cc 0d3e a672 b23d
000003f0: 63e7 febd c16b d4be b655 ff3d 7ebd 8a3d
-0.097563975 0.20517717 -0.77775633 -0.016813507 -0.08965193 0.22689986 -0.06382403 0.28685963
0.19292808 -0.28084788 0.157911 0.14216074 0.28180665 0.067113236 0.09801268 0.1377401
-0.040601578 -0.13000578 -0.5961091 0.029374855 0.46616545 -0.42471477 0.17820619 0.058550358
0.01627763 0.019734627 -0.36427158 -0.34056082 -0.5595927 -0.22495113 -0.33776298 0.15420486
-0.31183416 -0.28468356 -0.0330368 0.22332004 -0.068308845 -0.296457 -0.08757539 -0.2832726
-0.35011902 -0.20892368 -0.17853773 0.18716738 -0.24793395 0.009159469 -0.03692493 0.38889602
-0.05135509 0.09393471 -0.42806765 0.068208225 0.020848008 -0.43595335 0.120870255 -0.07961383
0.03987364 -0.48896202 0.09541404 0.084332995 -0.26527143 -0.0096741235 0.048253182 0.091704324
-0.057644453 -0.34738544 0.24496098 0.22550492 -0.39699826 0.038033795 0.2399481 0.16981745
-0.39467403 -0.08900474 0.041384332 0.09242189 -0.25255615 -0.051731154 -0.41014662 0.30359474
-0.22420335 0.011668432 0.014152482 -0.0053309877 -0.42173088 0.27808747 -0.504683 -0.39053503
-0.5590131 -0.17296357 0.24113356 -0.121318445 0.16261262 -0.082046635 -0.27885884 0.25427598
0.1448234 0.112307824 0.038860198 -0.8262138 -0.16194695 -0.2202647 0.21398847 -0.039018
-0.22199948 -0.24136029 0.2179887 -0.05441414 -0.102784544 0.00896462 0.089347646 -0.036877736
-0.37048924 0.10620939 0.23635206 -0.111968145 -0.037873004 0.20549133 -0.5127879 0.051383574
0.06675798 0.015497323 -0.32373157 -0.01721616 0.18230821 0.039575715 0.010527336 -0.13411757
-0.05758786 0.13210341 0.019086644 -0.3883011 -0.05934378 -0.1463685 -0.58679086 -0.37046644
0.15608543 0.25150824 0.06994452 -0.02860885 -0.12624726 -0.2710834 0.28196964 0.08144766
0.124455355 0.014948157 0.2335287 -0.27558523 0.089989506 -0.43286708 0.2397071 0.12747507
0.12912486 0.032005575 -0.29975605 -0.065173626 0.239737 0.05548512 -0.46429184 -0.03828677
0.068609804 0.056199174 -0.09891608 0.11381846 -0.03815553 -0.272499 -0.08663684 0.055260897
-0.32585633 0.28911343 -0.00861012 0.2283839 0.060272537 0.025768995 0.013746547 -0.03204209
-0.19099978 -0.45252076 0.09422676 0.007637959 0.07090033 0.30552247 -0.30533457 0.05982758
0.07342818 -0.23064359 -0.21690688 0.1041986 -0.3242413 0.19563697 0.19417708 -0.16500694
-0.008549832 0.032531846 0.13343725 0.047641035 0.15839857 0.18255357 -0.0002306437 -0.15716445
0.18610856 0.23327576 0.23354618 0.020381294 -0.43649858 0.083358645 -0.3142488 -0.0929853
-0.4986976 -0.45244777 0.09819512 0.17460641 -0.35834482 -0.1605237 -0.0046651764 0.12528968
-0.17275853 -0.30324453 -0.030723577 -0.3325837 -0.046803348 0.008634344 0.3083587 -0.13563664
0.07947911 -0.13263923 0.022139398 -0.025104214 0.11120451 0.1493313 0.3547244 -0.018328052
-0.10689725 -0.3536468 -0.24041541 -0.08909233 -0.755473 -0.05173609 0.07532572 -0.100446224
-0.074761316 0.18336932 0.124211736 -0.024238149 -0.11663968 0.18516985 -0.03654044 0.06785001
-0.023025576 0.074735835 0.13847698 0.08713274 -0.12446477 -0.4148846 0.1246752 0.06774424

fc3.bias f4 [10]
00000000: 7822 59bc 669b 15be 8908 14be c164 86bd
00000010: 5117 2cbd f105 88bc 9581 6ebc eb17 37be
00000020: 1d09 a23e d681 613e
-0.013252847 -0.14610061 -0.14456381 -0.06562186 -0.042014424 -0.016604396 -0.014557262 -0.17880218
0.31647578 0.22022185
