MNIST_training/simple_nn.ckpt (torch, 440220 bytes, 6 tensors)

fc1.weight f4 [128, 784]
000000 e6 e5 58 3c 1b 9c 9c bc e3 ce 87 bc 7c 11 e1 bc
       0.013238406 -0.019117406 -0.016578143 -0.027474158
000010 02 c7 02 bc d3 13 04 3d b5 7e 09 3d f9 47 28 3d
       -0.0079820175 0.03224547 0.033568103 0.041084263
000020 61 2e 17 3d 7a 7f 5d bb c7 60 10 3c 68 f1 6b bc
       0.036909465 -0.0033797906 0.008812136 -0.014400817
000030 75 6e b9 3c 63 b8 df 3b 63 cd 20 3d 12 ce 56 3c
       0.022635678 0.0068274005 0.039258372 0.013110654
000040 79 70 4b 3b b3 cb 9d 3b 48 c1 8d 3c 9d c2 8b 3c
       0.003104238 0.0048155426 0.017304078 0.017060572
000050 52 42 80 3b 5a a2 1b bc 2b d9 c9 bc 49 9f 14 3d
       0.003914156 -0.009499157 -0.024639687 0.03628472
000060 59 0b 2f 3c ac d0 12 bc 93 08 26 3d 1d 9f 03 3d
       0.010683858 -0.008960884 0.04053552 0.032134164
000070 d2 03 7e bc 4b d4 c0 bc 41 0a 58 bc 13 de b9 3b
       -0.0155038405 -0.02353873 -0.0131860385 0.0056722253
000080 3e 16 21 3c c7 33 d5 bc cf d2 bd 3c 43 d6 ce 3c
       0.009831963 -0.026025666 0.02317181 0.025248652
000090 65 02 b9 3c b1 a5 19 3d c1 c6 05 ba e1 af 90 bb
       0.02258415 0.03751153 -0.0005103164 -0.0044154976
0000a0 17 ec 26 3d 23 8e f3 3b 76 0f 26 3c 75 65 0e 3d
       0.040752497 0.0074327155 0.010135522 0.034764726
0000b0 ab a7 cf 3c 2c 2b 22 bc 37 86 d0 3c 07 55 48 bc
       0.025348505 -0.009897988 0.025454624 -0.012227303
0000c0 a7 d6 34 39 5e 74 0e bc cb 58 fb bb 9f 04 ae bc
       0.00017246102 -0.008694736 -0.007670497 -0.021242438
0000d0 90 62 12 bc 33 b9 0e 3d 30 d4 85 3a 04 6b cc bc
       -0.008934632 0.03484459 0.0010210332 -0.024953373
0000e0 1e 51 17 bc 02 db 92 3b 29 85 9c 3c 3e ba 72 3c
       -0.009235648 0.004481674 0.019106464 0.014814911
0000f0 61 7f d4 bc 33 fc fe ba 0d e8 09 3d 17 a7 f8 3c
       -0.025939645 -0.0019453823 0.033668566 0.030353112
000100 bb 7b 18 3d 15 fa 23 3d f5 c5 f1 3c 77 d7 c2 bb
       0.037227374 0.04003342 0.029513339 -0.0059460956
000110 6c fe a3 3c 4b 6d 0a 3d 99 1d 32 bb 90 10 55 bc
       0.020018779 0.033795636 -0.0027178286 -0.013004437
000120 3f 28 69 bb 56 4f 7c 3c d6 df 4c bc 79 7f 1d 3d
       -0.0035576967 0.015399775 -0.0125045385 0.038451646
000130 3b 88 d2 3b bd d6 b2 bc 51 9f dc bc 55 0c 2a 3d
       0.0064249313 -0.02183091 -0.026931437 0.041515667
000140 61 a9 37 3c 36 4b 85 3c dd 87 eb 3c ed 42 e3 3c
       0.011209817 0.016271215 0.028751308 0.027741874
000150 9d a1 9c 3c 36 88 b0 bc 62 46 64 3c f3 6a 7d b9
       0.019120032 -0.021549325 0.013932796 -0.00024167802
000160 05 d3 04 3d 3b 99 d2 3c fc f0 61 bc 92 40 25 3c
       0.032427806 0.025707832 -0.013790365 0.010086196
000170 7a 0c a0 3b 85 49 e3 bc 49 6b 26 3d 58 e7 a5 39
       0.0048843 -0.027745018 0.04062966 0.00031643617
000180 c6 6a 83 bc 53 29 17 3c bf 11 85 3c ab c1 1f 3d
       -0.016042124 0.009226161 0.016243814 0.039003056
000190 03 dc c1 3b ca 7b 82 3b 93 ce fc 3b 06 d0 54 3c
       0.00591612 0.003982042 0.0077150553 0.01298905
0001a0 13 d3 f6 3c 59 8b c8 3c b9 de df bc cd 70 cb bc
       0.030129945 0.024480509 -0.027327882 -0.024834061
0001b0 b3 af 20 3d cb 39 f1 3c 0a 9d 89 3b d6 5a 74 3c
       0.03923006 0.029446503 0.0041996287 0.014914235
0001c0 a1 d5 89 bb 14 c1 e0 bb a1 b6 20 3d 6b fb cf bc
       -0.0042063748 -0.006858954 0.03923667 -0.02538844
0001d0 0d 3a 82 bc 2a d1 82 3b 8b 5c 15 3d 41 3e b4 bc
       -0.015896821 0.0039922195 0.03646521 -0.022002341
0001e0 28 9a e0 3c b3 ad 4d 3c 7c 62 f2 bc 7d 57 c7 3c
       0.027417257 0.01255362 -0.029587977 0.02433371
0001f0 2c 46 c1 3c 8d 7a bd 39 f6 7e 92 3b b2 bb 17 bc
       0.02359303 0.00036140197 0.0044707013 -0.009261059
000200 21 25 0e 3d 5e 27 c7 bc 39 c7 0f 3d dd 63 bd 3b
       0.034703378 -0.024310764 0.035102103 0.005779727
000210 58 e0 63 bc cd 01 81 bc 06 cf 90 3c 69 57 95 3c
       -0.013908468 -0.015747929 0.017676841 0.018230157
000220 fb 24 0f 3d 25 e4 06 3d f2 5a 80 3b 2a a2 85 3c
       0.034947377 0.03293242 0.0039170915 0.016312677
000230 cf 4a 86 bc f7 ae be 3c 8a 27 8e 3b 6f bb ba 3c
       -0.016393093 0.02327679 0.0043382095 0.022794453
000240 7f 8f e6 3c 79 e7 19 3b fd ee 8f bc ac a5 11 3d
       0.028144596 0.0023483916 -0.017570013 0.035558388
000250 d5 c5 8c 3c 69 94 9f 3c 3b 14 f2 bc 0a 04 85 bc
       0.017184177 0.019479947 -0.029550662 -0.016237278
000260 5b e5 35 3b fd 2f e3 3c e0 c4 02 bd e4 44 eb 3c
       0.0027755115 0.027732844 -0.031926036 0.028719373
000270 8e 70 9a 3c 39 9d bf bc 31 88 94 bc 46 b1 ae bc
       0.018852498 -0.0233904 -0.018131347 -0.021324765
000280 c8 f4 ef 3c 2c 8d dc 3c 6c 4f 0b 3d fb e5 d1 3c
       0.029291525 0.026922785 0.03401129 0.025622359
000290 51 a9 b5 3c b6 91 06 3d 55 91 03 3c 99 5d 1f 3d
       0.022175463 0.032853805 0.008030255 0.03890762
0002a0 53 4b b8 3b 82 b8 24 3c 67 43 1a 3c 6f ea dc bc
       0.0056242137 0.010053756 0.009415484 -0.026967255
0002b0 17 3d d1 3c d2 6d 52 3c 73 9f d0 bc 90 14 1b 3d
       0.025541825 0.012843566 -0.025466656 0.037861407
0002c0 ae f5 f8 3b 43 56 95 3c 8b a1 03 3d 48 b4 d6 bc
       0.0075976467 0.01822961 0.03213648 -0.026209012
0002d0 9a 4c 8c 3b 0c eb 7e bc d6 73 86 bc ac 9b 60 3c
       0.0042815926 -0.015558969 -0.016412657 0.01370899
0002e0 32 9b 9d bc 6a c8 b1 3c 3c b3 d0 3a df 64 9c bc
       -0.019239042 0.02170201 0.0015922557 -0.019091068
0002f0 c1 55 f0 3c d2 6e 8d 3c 87 d6 81 3c eb 41 eb 3b
       0.029337766 0.017264757 0.015849365 0.007179489
000300 96 7a 1a bc 2d 8b cd bc d9 7b dc 3c 59 25 32 bc
       -0.009428641 -0.025090778 0.026914524 -0.010873162
000310 9d 55 b1 3c 98 2c bb bc 75 86 31 3c d8 ef 98 39
       0.021647269 -0.022848412 0.01083528 0.00029170397
000320 9d ca 95 3c 05 f9 dd 3c 3a 91 57 3c fa 56 6e 3c
       0.01828509 0.02709628 0.013157183 0.014547104
000330 8d 83 d5 3c d5 62 ef 3c 9d d7 88 3c be 8b b5 3b
       0.026063705 0.029221931 0.016704375 0.00554034
000340 6d 43 e4 3c 97 4e 9c bc 10 2e 05 bd 8e 34 1e bd
       0.027864182 -0.019080443 -0.03251463 -0.03862434
000350 55 c2 6a bc c1 06 ea bc 6a da b4 3a f6 d9 97 ba
       -0.014328559 -0.028567674 0.0013798003 -0.0011585343
000360 7d cc f4 ba 21 77 0a 3d 76 1d f0 bc b3 9c b4 bc
       -0.0018676665 0.033805016 -0.029310923 -0.022047376
000370 db 01 e8 3c 50 85 91 bb 55 5e ff 3c 13 df 17 3c
       0.028321197 -0.004440941 0.03117291 0.009269494
000380 6f e8 92 bc 7d 96 83 bc 57 a3 d1 3c 12 7a 77 3c
       -0.017933099 -0.01606297 0.025590582 0.015104787
000390 ff 1a d4 3c c3 fb 1b 3c 24 62 43 ba 7d 3c 07 3d
       0.025891779 0.009520474 -0.0007453284 0.03301667
0003a0 b3 32 ea 3c f1 3e 2e 3c 1c 42 67 bc 59 93 81 3b
       0.028588628 0.010635124 -0.014114883 0.003954333
0003b0 d5 02 8f 3c 0c 01 96 bc f6 9b b7 bc 27 c4 83 bc
       0.017457405 -0.018311046 -0.022413235 -0.016084744
0003c0 36 b4 e8 bc 7c 07 85 bb 22 5f 28 bc c8 4e a4 bb
       -0.028406244 -0.00405973 -0.010276588 -0.0050142743
0003d0 fb 34 1b 3c 8e 30 88 3c 3d 10 a3 bc 00 75 2d 3c
       0.009473081 0.016624715 -0.019905204 0.010586977
0003e0 a0 91 d3 bb 85 66 9e 3c 3f 2f f1 bc d7 69 f2 bc
       -0.006456569 0.019335994 -0.029441474 -0.029591484
0003f0 f3 85 ae 3b db 10 86 bc 81 de c0 bc 09 1e 10 bb
       0.0053260266 -0.01636546 -0.023543598 -0.0021990559

fc1.bias f4 [128]
000000 8d d2 c9 bc f2 f8 23 3d c5 d8 8a 3c 3d a5 5e bc
       -0.024636531 0.040032335 0.016949067 -0.013589201
000010 35 6a 23 b8 31 90 68 bb a6 2e 36 3d f5 db a2 ba
       -3.896114e-05 -0.0035486335 0.04447808 -0.0012425171
000020 22 c8 86 bc 98 43 1f 3d b5 6c 0b bd 1b d5 cd 3c
       -0.016452853 0.03888282 -0.034039218 0.02512603
000030 c4 f6 bd bc dc d5 dd 3c f0 ca 9a bc 37 58 1e bb
       -0.023188956 0.027079515 -0.018895596 -0.0024161467
000040 17 bb ba 3c 27 93 ca 3b d6 3c 17 3c fc 62 a4 bc
       0.02279429 0.0061820927 0.009230813 -0.02006673
000050 83 4e 60 3c 92 39 b7 bc 74 ad a4 bc e2 2c 76 3c
       0.013690594 -0.022366319 -0.02010224 0.015025349
000060 82 82 da bc 8f f3 06 3c ca f4 1a bb f6 31 95 bc
       -0.02667356 0.00823678 -0.002364444 -0.0182123
000070 55 61 7a 3c 56 15 be bc 70 52 2a bd b5 ac 46 bd
       0.015281995 -0.023203533 -0.041582525 -0.04850455
000080 3d b3 b1 bb 7d d5 96 ba 10 5a 76 3b 79 b0 77 3b
       -0.005422978 -0.0011507716 0.0037590303 0.0037794395
000090 85 19 f5 bb 6b 31 6b bb c5 c6 b8 bc 4a a6 a7 3c
       -0.007479849 -0.003588761 -0.022555718 0.020465035
0000a0 be 03 1e 3c 1a d9 48 bb 91 aa fe bc 14 c8 af 3c
       0.009644447 -0.003064698 -0.031087192 0.02145771
0000b0 f3 ad 9e bc 29 7b f2 bc 9e 67 b5 3b 15 51 5b 3c
       -0.019370055 -0.029599743 0.005536034 0.013386031
0000c0 a3 1e 29 3c e9 b7 81 3c b1 08 0d 3d e8 c2 f8 bc
       0.010322246 0.015834766 0.034432117 -0.030366376
0000d0 f5 27 c1 3c 2a d9 9e bc 01 d3 1a bd 05 8b 5c bc
       0.023578623 -0.019390661 -0.037798885 -0.013460879
0000e0 48 72 7a 3c b3 3c 96 bc 03 27 ef 3a 1c 35 97 3c
       0.015286036 -0.01833949 0.0018245879 0.018457942
0000f0 50 1f e4 3c 4e e0 4a 3d 44 2f 47 bd 64 77 6a bd
       0.027846962 0.04953032 -0.04862906 -0.057242766
000100 7a f5 82 3c ed 80 f7 bc 9f b0 bd bc 49 fe b2 bb
       0.015986193 -0.030212844 -0.023155509 -0.005462442
000110 1d d0 03 ba 02 75 83 3c af 37 2c 3d 26 9b ce bc
       -0.0005028265 0.016047005 0.04204529 -0.025220465
000120 77 95 f1 bb 91 73 4d bc b7 1c 40 3b 9b 5f 73 bc
       -0.007372554 -0.01253976 0.002931399 -0.014854337
000130 db 00 34 3c ff af 3d bb 0c 15 70 3d b6 e6 89 3b
       0.010986532 -0.0028944013 0.058613822 0.004208411
000140 48 1a 24 bc 02 93 91 3b ad 92 1d bd 41 60 67 bd
       -0.010016032 0.0044425735 -0.03846996 -0.05648828
000150 9d 3f bd bc 3c d2 8a bb 39 92 92 bc f0 79 bc 3c
       -0.023101622 -0.0042364877 -0.01789199 0.023007363
000160 a6 c2 85 3c 97 34 37 bc c8 62 11 3b d7 5c 97 3c
       0.016328167 -0.011181972 0.0022184122 0.018476887
000170 9c df c2 3c f2 3a 92 bc 84 23 88 3c 2e 2e cf bb
       0.023788266 -0.017850373 0.016618498 -0.0063226437
000180 08 cc 70 bc c8 01 18 3c 4f d9 41 3c 3d 95 c8 3c
       -0.014697082 0.009277768 0.011831596 0.024485225
000190 d7 ca 06 3d 75 60 f2 bb 71 9c 1c bd df 64 03 bd
       0.032908287 -0.0073967525 -0.03823513 -0.03207862
0001a0 82 39 30 3c bb 17 13 bc 80 87 0c bd a4 2e 9c ba
       0.010755898 -0.008977826 -0.03430891 -0.0011915755
0001b0 ef fc fe bc b4 3a 23 3d 65 f1 13 bc 02 a1 1e bc
       -0.031126468 0.039850906 -0.009029721 -0.009681942
0001c0 06 f4 dc 3c a4 ca 7e bd eb 18 fb bc 6e 28 8a 3b
       0.026971828 -0.062204972 -0.03065153 0.0042162454
0001d0 f7 fa b1 bc cb 3c 13 3d 2a ae 09 bc ad 2f db bc
       -0.021726115 0.03594665 -0.00840334 -0.026756132
0001e0 21 fd 17 bd ac c2 e4 bc cd f5 a7 3a db c2 82 bd
       -0.037106637 -0.027924858 0.0012814343 -0.06384822
0001f0 62 81 c7 bb a0 d1 3e bd 40 d9 98 bc f6 4f a6 bb
       -0.0060884217 -0.046586633 -0.01865828 -0.00507545

fc2.weight f4 [64, 128]
000000 c0 bb 81 bc 4e 9e 47 3e 0d a1 fa bc 0b 85 53 be
       -0.015836596 0.19493982 -0.030594373 -0.2065622
000010 6e 01 a1 bd 1e fc a6 bc e5 3c 1b bd 28 61 a8 3c
       -0.07861601 -0.02038389 -0.03789987 0.02055414
000020 1b 8d 1f be 0d b5 07 3e f6 f7 a0 bd 0f f5 62 bd
       -0.15581171 0.13252659 -0.07859795 -0.055409487
000030 84 fe b8 bc 23 6a a0 3d 5d 23 4f 3e 41 31 a9 bd
       -0.0225823 0.07832744 0.20228334 -0.082613476
000040 5b 37 84 3c 84 73 25 3d 20 c1 49 3c 84 0d 85 bd
       0.016139677 0.040393367 0.012314111 -0.064967185
000050 5b a9 0e bd 62 ba dd 3e cb 0e 75 3e 9a f7 6a 3b
       -0.03482948 0.4330626 0.23931424 0.0035853148
000060 eb be 29 bc f9 63 4f be 6b 80 76 bd 80 c7 80 3c
       -0.01036046 -0.2025298 -0.060181063 0.015720129
000070 ef 7c 87 be fc 6b 39 bd e8 90 33 be 46 92 74 be
       -0.26462504 -0.045268998 -0.17535746 -0.23883924
000080 56 00 3d 3e f6 24 04 3d bc 87 8f be 51 34 1f bd
       0.1845716 0.03226181 -0.28033245 -0.038868252
000090 51 1e 6f 3d dc 12 1b 3e 9e cf f3 bc d6 1d cf bc
       0.05837852 0.15143913 -0.029762086 -0.025282782
0000a0 a9 24 85 bd 3c 6d 1e 3d 04 84 4c bd 3c 41 0f 3d
       -0.06501133 0.038678393 -0.049930587 0.03497432
0000b0 3b 88 db 3c 0e d3 b2 3d 9a f0 9b bd f9 8b a7 bc
       0.026798358 0.08731662 -0.076142505 -0.020452486
0000c0 d6 d7 9e 3d 29 df a9 3d 9a 99 22 3e 36 a0 b8 3d
       0.07756011 0.082945175 0.15878907 0.09014933
0000d0 cc 2f a8 bc 7e f6 52 3e bb bd 52 3d 7a e3 95 bd
       -0.020530604 0.20601842 0.051450472 -0.07318778
0000e0 33 f9 35 3c 0c 19 b2 3e 53 91 4d 3e 5c c9 a7 3d
       0.011106777 0.34784734 0.20074968 0.08192703
0000f0 66 ec 47 3d 55 89 88 3d 15 6f 9d bd f7 ff 3c be
       0.04880943 0.06666819 -0.07687203 -0.18457018
000100 93 df 5a 3c 13 25 3f bd 8b 4b 21 bd 38 66 a0 3d
       0.013358968 -0.046666216 -0.039378684 0.07831997
000110 49 a0 96 3d 7b 92 a1 bd 05 21 8b 3e 18 c2 8f bc
       0.07354791 -0.07889267 0.2717363 -0.017548606
000120 b1 1c 3e be 54 2e 63 3d 4a 6c 15 be f8 61 2a bd
       -0.18565632 0.055464104 -0.1459209 -0.041597337
000130 0b 73 1e 3d 44 f5 7e 3d d7 dc f4 ba 14 07 62 3e
       0.038683932 0.062245622 -0.0018681538 0.22073013
000140 b0 da 59 3e 5b 37 b5 bb 89 85 5d 3c ac 27 62 bd
       0.21274829 -0.0055302805 0.013520607 -0.055213615
000150 bd 1b a3 bc 5e 85 11 3d f9 24 d6 bc 0e a8 c2 3d
       -0.019910688 0.03552758 -0.026140677 0.0950471
000160 bf ef a4 bd d9 ce 81 3d 3a 31 00 be b2 53 70 bd
       -0.080535404 0.06338281 -0.12518778 -0.058673568
000170 c4 4a a6 3c 7b 2a 3a be 8c 91 19 3e ed 0f 8e 3d
       0.020299323 -0.18180268 0.14996928 0.06936631
000180 db 9e 87 3d 4c f9 30 3d f3 3e 62 bb df 22 61 3c
       0.06622096 0.043206498 -0.0034522384 0.013741224
000190 8e a2 ab bd c5 03 63 bd 97 1f ac 3d 15 69 3c 3d
       -0.08380614 -0.055423517 0.08404463 0.04599865
0001a0 73 11 5c bd b8 02 be 3d 56 f2 6a bd 78 d5 18 be
       -0.05372758 0.09277862 -0.057360016 -0.14925182
0001b0 75 0a 1a 3d 63 42 64 bd a7 f0 bb bb 07 0c 8f bd
       0.03760763 -0.055727374 -0.005735475 -0.06984716
0001c0 0a e8 a5 3d 08 fe 04 be 17 af ad bb 34 8d a2 3c
       0.081008986 -0.1298753 -0.0053004134 0.019842722
0001d0 30 ec ea 3d 05 6e c9 3c 15 1c 7e 3e 4a 0a 9b 3d
       0.114708304 0.024588594 0.248154 0.07570322
0001e0 a9 ee 75 3e b2 c3 88 3d 3b 4d 72 bd 10 06 a7 be
       0.24016823 0.06677951 -0.059155684 -0.32621813
0001f0 a1 1b 25 bd a3 b9 d4 3d 1f 4a 12 3e a6 51 75 3d
       -0.040309552 0.1038697 0.14286087 0.05989232
000200 00 e8 68 3c 2e ee 04 3d 46 00 78 3d d4 89 04 be
       0.014215469 0.03245371 0.060547136 -0.12943202
000210 3c aa 14 bd d6 78 6d bd 46 92 bd bb cd 40 55 3c
       -0.03629516 -0.057976566 -0.0057852594 0.013015938
000220 af c5 12 3e 8c 55 78 3c b1 88 8d 3e b9 33 15 bd
       0.14333223 0.015157115 0.2764335 -0.03642628
000230 4d 24 93 3d d6 19 1e 3d ba 0f 4f 3e 3f 09 cc bd
       0.07184658 0.038598858 0.20220843 -0.09962701
000240 9e 5f 10 bc cd 64 06 3d 2d a7 95 bd e5 28 2d 3d
       -0.008811859 0.032810975 -0.07307277 0.04227533
000250 51 77 57 3e 72 1a bc be 96 f9 dc bb 2b 89 43 3d
       0.2104161 -0.36738926 -0.00674362 0.047738235
000260 7c 0a a6 3d 35 40 2c be bc 9c fd 3c a5 7a 26 3d
       0.081074685 -0.16821368 0.030958526 0.040644307
000270 b3 4b 59 be d6 46 8e bc ec cf f6 3d ac 37 e2 bd
       -0.21220283 -0.017367762 0.12051377 -0.11045775
000280 bd 37 80 3d 31 e6 ba 3c 6d b2 fd bc dc 9f 63 3e
       0.06260631 0.022814842 -0.03096887 0.2222895
000290 c8 a2 77 3e 15 77 38 be 36 b5 97 bd 3d 34 2a 3d
       0.2418319 -0.18014176 -0.0740761 0.041553725
0002a0 47 0a 2e bc ab aa 31 3e 20 8f 0b 3d 79 9f 9f 3d
       -0.0106225675 0.17350261 0.03407204 0.07794089
0002b0 31 7d b5 bd 1e 83 5f 3d b0 94 b7 be 5a 57 a4 3c
       -0.08861769 0.054568402 -0.35855627 0.020061184
0002c0 32 65 a2 bd 2f e9 17 bd e6 e0 01 be 44 74 01 3d
       -0.07929458 -0.037087616 -0.12683448 0.03160502
0002d0 80 82 8f 3d 81 24 5f 3e 29 9f a5 bb 67 c0 78 bd
       0.07007313 0.21791269 -0.0050543738 -0.060730364
0002e0 30 7d a1 bb 99 53 63 3e d6 38 a6 3d d3 e5 6b bd
       -0.0049282536 0.22199859 0.08116309 -0.057592224
0002f0 5c 4d 32 3d 31 6f c6 3d 0e 42 4a 3e ba 4d 03 3e
       0.043530807 0.09689177 0.1975176 0.12822619
000300 8b 84 9e 3d 06 83 06 3d 56 e5 5e 3d 11 7e 87 3e
       0.07740124 0.032839797 0.05441793 0.2646337
000310 37 10 4d 3b d5 40 8f 3d 10 f4 0a be 3f a4 99 bd
       0.0031290182 0.069947876 -0.13569665 -0.075020306
000320 d9 37 c5 bd ef 1a 46 3b 85 39 a5 3d ed a0 98 bd
       -0.09629793 0.0030228456 0.080676116 -0.07452569
000330 5f e3 50 3d 4a 4a 9b bd 80 b5 0a be 00 b7 a1 bd
       0.050998088 -0.07582529 -0.135458 -0.078962326
000340 79 3b 4b be 6d c5 9c 3d df 56 89 3d 45 7f ae 3d
       -0.19846906 0.076548435 0.067060225 0.085203685
000350 87 c1 4f 3e 2a 75 09 3c 92 3c 43 3e d3 a8 82 3d
       0.20288669 0.0083897505 0.19066074 0.06379857
000360 b2 57 19 be 66 35 98 bd c2 04 05 3e be d4 2b 3d
       -0.1497486 -0.0743206 0.12990096 0.041950934
000370 d6 ed 09 3c f8 1f 20 be 7d 85 5e 3e 6d 1e 6f 3c
       0.008418521 -0.15637195 0.21730609 0.014594656
000380 28 a4 de bb a1 b8 c2 3c 3d 04 0b 3e d9 43 6e 3c
       -0.0067944713 0.023769679 0.13575836 0.014542543
000390 4a 6c 2d be 3f 14 98 bd 9e d6 86 3e 7b d7 29 3e
       -0.1693584 -0.07425737 0.26335615 0.16586106
0003a0 5b 1c 31 bd a8 9d 9f bd e5 45 82 3b a6 0a 9e 3e
       -0.043239933 -0.077937424 0.0039756172 0.308675
0003b0 07 46 7f bd a8 bd 17 be 23 46 1d be 2a ba 69 3d
       -0.062322643 -0.14818442 -0.15358786 0.057062306
0003c0 78 4c 7a 3c f1 62 52 3d de 9d 91 bc 04 e8 67 bd
       0.015277021 0.05136389 -0.017775472 -0.05661775
0003d0 34 bb a4 3e fe 04 b6 be 36 d6 86 bd f3 28 01 3e
       0.32174075 -0.35550684 -0.06583826 0.12613277
0003e0 ad 0d 13 3e f3 55 bc bc c3 88 e7 3d ed 43 05 be
       0.14360686 -0.022990203 0.11305382 -0.13014193
0003f0 72 68 a5 3c eb 1a 04 3e 23 62 f1 3d bf 62 34 3d
       0.020191405 0.12900893 0.11786296 0.044039484

fc2.bias f4 [64]
000000 2f 0a 22 be 3d 48 10 bd 34 43 ce ba 9c 0a 62 3e
       -0.15824197 -0.03522514 -0.0015736581 0.2207436
000010 fc 84 8b 3e 96 e6 0a 3e dc 01 34 be e8 7b bb 3d
       0.27249897 0.13564524 -0.17578834 0.091544926
000020 9f 76 82 bd ca a4 53 bd 8e 0f af 3d 88 a9 87 bc
       -0.063702814 -0.051670827 0.08547889 -0.016560331
000030 15 08 8f 3d 83 d5 d5 bd da e3 1a be 47 12 d7 3d
       0.069839634 -0.10441115 -0.15125981 0.10501533
000040 b8 ef 2a 3e 2a 28 1e 3b 42 95 07 be 23 68 69 be
       0.16693008 0.0024132826 -0.13240531 -0.22793631
000050 08 14 da 3d 7e 63 5b bd ec 6e 0a bc 9f 2b b6 3d
       0.10648352 -0.05356168 -0.008449297 0.08895039
000060 27 9e 8e 3d 65 e6 90 3d 43 08 c9 3d 8e 8a a9 3c
       0.06963759 0.07075194 0.09816029 0.02069595
000070 99 32 e1 3d 73 fa 0c 3e 7e 9e 09 be f3 2d 92 3c
       0.10995979 0.13767414 -0.13439366 0.017844176
000080 e2 37 b5 bd a7 04 42 3e 8e c5 2d 3e 26 0d d7 3c
       -0.088485494 0.18947087 0.16969892 0.026251387
000090 43 18 ff 3d c2 65 59 bc 89 78 08 3d 4b af 61 bd
       0.124557994 -0.01326889 0.033318076 -0.055098813
0000a0 48 37 78 3e aa b3 66 bd b9 92 b9 3d 96 58 17 3e
       0.24239838 -0.056323685 0.09061188 0.14779887
0000b0 1a 6b 21 be f8 0e 81 bd dd f0 a7 bb 33 5e e4 3d
       -0.15763512 -0.06301683 -0.0051251487 0.111507796
0000c0 ef 8e 0d bc f7 d4 80 3e 81 19 a4 bd 35 88 a9 3d
       -0.008640035 0.2516248 -0.08012677 0.082779326
0000d0 0b 20 ed bc ea cf 98 bd b9 49 8d bd 1f 9b c3 bb
       -0.028945943 -0.074615315 -0.06898827 -0.0059694196
0000e0 68 6a ed bd be d4 59 3d 6c 84 53 3e 8d 95 44 be
       -0.11592561 0.053181402 0.20655984 -0.19197674
0000f0 47 0a 11 bd 4c 3f dc bc 89 3d 1d be 29 ee b0 3e
       -0.035410192 -0.026885651 -0.15355505 0.34556702

fc3.weight f4 [10, 64]
000000 7a 7f 14 3d 4e 1f 2e bf 1f af 76 3e eb 9f 97 be
       0.036254384 -0.6801652 0.24090241 -0.29614195
000010 50 0b 37 3d 01 fb 84 be 3e 83 f7 3d 1a 07 87 bc
       0.044688523 -0.2597275 0.12085579 -0.016482878
000020 4c 81 97 3e f1 7e a0 bd 89 31 13 3d b4 c2 27 bc
       0.29590833 -0.07836712 0.035935912 -0.010239292
000030 79 5a 26 be bf b9 ab bd 2c 59 01 bf 93 ca 2f be
       -0.1624545 -0.08385038 -0.5052669 -0.1716712
000040 f9 dc 93 bd b1 4b f4 bd d4 10 a9 3d e2 d6 87 3e
       -0.072198816 -0.119284995 0.08255163 0.2653113
000050 13 aa 98 be d9 74 8a 3e 3d 0e c4 bc d9 b8 d2 3d
       -0.29817256 0.27042273 -0.02393257 0.10289163
000060 7c dc 9b 3d 24 73 1f bf de 4c 0c 3e a9 fb 45 be
       0.076104134 -0.62285066 0.13701198 -0.19334282
000070 8e 63 0a 3d 00 68 13 3e 43 a5 ab 3d d9 aa 2a 3c
       0.03378635 0.14395142 0.083811305 0.01041671
000080 cd 29 17 bd d3 63 e2 be 8f d0 d4 3d 7f ea dd bd
       -0.0369051 -0.44216785 0.10391342 -0.10835742
000090 4d 36 0f 3a 39 aa aa bb ec 7b 15 bf 29 e9 e6 bd
       0.00054631085 -0.0052082804 -0.58392215 -0.112749405
0000a0 7a 01 12 be e3 70 04 be 8d c4 97 3e 2d b8 84 be
       -0.14258376 -0.12933688 0.29642144 -0.25921765
0000b0 ac b0 65 bd 90 72 e8 bd fe cd 34 bf 4b 0b 8d 3e
       -0.05607669 -0.11349976 -0.7062682 0.27547678
0000c0 e0 04 23 3d 88 c0 c8 3d 49 68 21 be fa db 12 3d
       0.03979957 0.098023474 -0.15762438 0.035854317
0000d0 d2 79 a9 3d 22 28 01 be 4c 2d 26 bd c0 d0 68 3c
       0.082751885 -0.12612966 -0.040570542 0.014209926
0000e0 c5 07 ae bd 02 50 2a be 36 3b 78 3e 24 57 aa be
       -0.08497576 -0.16632083 0.24241337 -0.33269608
0000f0 a4 18 84 3c 15 6e b6 3e 26 58 ae bd af 12 8a bd
       0.01612503 0.3563086 -0.08512907 -0.06741845
000100 a8 61 2b 3e de a6 59 3e 4d 5e bd be dc 9e 1b be
       0.16736472 0.21255061 -0.36986008 -0.15197319
000110 0f 5f ee be d0 42 09 bf 9f 49 a8 be 32 9e 2d 3d
       -0.465569 -0.5361757 -0.32868668 0.042387195
000120 cf 84 3b 3e ff d8 c1 bd 3e 1b 53 bc 6d f7 80 bd
       0.18312381 -0.09465217 -0.012884913 -0.06297193
000130 b3 58 58 3e fb e5 a2 3d 89 ed 70 3d 56 ed 0d 3e
       0.21127586 0.079540215 0.05882028 0.13860068
000140 8b da 9c bd 79 22 8a bd c2 5e 10 bd a4 6c 9b 3e
       -0.07658871 -0.067448564 -0.035246618 0.30356324
000150 d3 45 22 3e 1d 0d 03 be 8a ef 36 bf c9 7f ab bd
       0.15846948 -0.12797971 -0.7145926 -0.083739825
000160 fa d0 02 be 54 14 3c 3e e0 17 b6 be 7a d8 ff be
       -0.1277503 0.1836713 -0.3556509 -0.49969846
000170 44 dc ff 3c 70 f6 64 be 13 a6 1c bf 17 5e 24 bc
       0.03123296 -0.22359633 -0.6119091 -0.010032198
000180 78 4b d0 bc 76 22 d4 3d 29 68 28 bf eb 0e 3d 3e
       -0.025426611 0.103581354 -0.65783936 0.18462722
000190 c1 4d 00 bf 14 72 25 bd 0f 88 92 3d 39 ae 0f be
       -0.50118643 -0.040391997 0.07154857 -0.14031304
0001a0 da 61 21 be 64 5b 56 bd 50 63 8d 3e b4 4e 52 be
       -0.15759984 -0.05233325 0.27614832 -0.20537835
0001b0 19 66 93 3e 20 a7 17 be b0 ae 39 3e bb 53 d5 be
       0.28788832 -0.14809847 0.18133044 -0.41665444
0001c0 f5 44 0a bd 4a fc ce bd 85 16 73 3e ad d5 22 3c
       -0.03375717 -0.10106714 0.2373906 0.00993864
0001d0 06 b7 a2 bd ad c4 96 3c bd ed 9a 3d e3 f8 a9 3c
       -0.07945065 0.01840433 0.07564876 0.020748561
0001e0 84 1c 8a 3e b2 7d 53 3e d4 65 a4 be 36 76 00 3d
       0.2697488 0.20653418 -0.3210894 0.031362735
0001f0 af e7 bc 3b 75 b3 e2 be 47 83 52 3e 61 f3 99 3d
       0.0057649235 -0.4427754 0.20557891 0.07517124
000200 6c 54 18 3e 2b 78 6e bc c9 e3 1e 3e 43 d6 8e 3e
       0.14875954 -0.014555017 0.1551658 0.27897844
000210 1a 55 c5 bd b9 04 50 be 6f bf bb 3d 55 9c 84 be
       -0.096353725 -0.20314302 0.091673724 -0.25900522
000220 a1 57 0b 3e c2 54 27 b9 0c 5f 81 3e 71 26 d2 bc
       0.13607647 -0.00015957936 0.25267828 -0.025653096
000230 3b 5a 0c 3e 29 12 37 bc 49 dc a7 3e 42 ba ec bd
       0.13706295 -0.011173763 0.32785252 -0.11558963
000240 af 44 38 3e 51 19 58 bd f1 51 84 bd 96 42 41 3c
       0.1799495 -0.05275852 -0.064609416 0.0117956605
000250 a2 8d 06 be f3 b1 a9 3e f8 6b 96 3d 09 37 70 be
       -0.13139966 0.33143577 0.07344812 -0.23458494
000260 c2 c3 9d 3e 7f 53 43 be b4 24 12 bf 6d 0d 99 3e
       0.30813414 -0.1907482 -0.57087255 0.29893056
000270 a4 42 2d be 1c d3 a4 be 16 77 b8 3c 81 1c 8a bd
       -0.16919953 -0.32192314 0.022517722 -0.06743718
000280 38 c4 7f bd 84 58 57 be b0 44 d8 3d 44 09 93 3e
       -0.06244299 -0.2102986 0.10559976 0.28718007
000290 ef c2 41 bd 4a 41 ba bc 37 88 75 be 9b b9 9f bd
       -0.047305044 -0.02273621 -0.23977743 -0.07799073
0002a0 87 98 8b be 51 fb 07 3e fd 12 a9 bd 52 9c 9b 3e
       -0.27264807 0.13279463 -0.08255575 0.303927
0002b0 9a 15 30 be 95 38 95 3e 5d 47 87 3d a4 f1 ec 3d
       -0.1719574 0.2914473 0.06605408 0.11569527
0002c0 92 c2 7e bd 90 17 8f 3d 17 92 c6 be e1 50 76 bd
       -0.062197275 0.06986916 -0.38783333 -0.060135726
0002d0 86 e9 ba be fe ed a1 bd be 10 9d 3d 62 76 77 bd
       -0.3650629 -0.079067215 0.07669209 -0.060415633
0002e0 9c 13 66 3d 3a 64 dd 3d 49 73 24 be ad 56 8a be
       0.056171045 0.10810132 -0.16059603 -0.27019253
0002f0 e4 ae a3 3d 37 c0 f2 3d 8d 30 0d bc b6 46 cd bd
       0.07992342 0.11853068 -0.008617532 -0.10023253
000300 f1 c0 48 bd 15 4f 2e 3e a1 bf c2 bd 9e 7b da 3d
       -0.04901213 0.17022355 -0.095092066 0.10668109
000310 3f c8 37 3d 09 5b 05 3b c2 47 16 3c 05 f8 42 3e
       0.044868704 0.002034845 0.009172382 0.19039924
000320 0b 0b f8 3d e1 85 d5 bc a0 c2 b4 bd 81 c7 80 3b
       0.12111481 -0.026064815 -0.08826184 0.0039300327
000330 4d 10 e2 3c 5f e1 af 3c 23 94 92 3e cd dd f8 be
       0.027595663 0.02146977 0.28628644 -0.4860672
000340 3b 6b 33 be 95 82 e4 3d 0f 80 c3 3b 05 0a ee be
       -0.17521374 0.11157719 0.0059661935 -0.4649202
000350 1d b1 8a 3e 2d 59 d5 be b2 f8 a6 be e7 1f 58 3e
       0.27088252 -0.41669598 -0.32611614 0.2110592
000360 7d 3a 53 be 5a 23 84 be 5a 25 1c be e1 97 83 3e
       -0.2062778 -0.2580822 -0.15248623 0.25701812
000370 b3 ee db bc 4b 4c eb 3a 17 91 08 3e ee 17 c0 3d
       -0.02684722 0.0017951814 0.13336597 0.09379564
000380 f8 d9 e1 3d c0 b5 d7 3c 9c f5 41 be f5 7f 0a 3b
       0.11027902 0.026331782 -0.18941349 0.0021133397
000390 9f ba 50 bd 53 05 40 3c b1 eb a2 bd bd c2 e8 3c
       -0.050959226 0.011720019 -0.07955111 0.028413171
0003a0 f2 eb c8 3d 4d fb ca bd 6e 9c 2c bc 5d bb 36 3e
       0.09810628 -0.09911213 -0.010535343 0.17844911
0003b0 96 9a 83 be 4b d2 31 be cb 40 ac 3d c1 1e 0b bf
       -0.25703877 -0.17365377 0.08410796 -0.543438
0003c0 2b f9 f8 3d fa dd b3 3d 87 9f 3a 3e bc 5a 89 3d
       0.121569 0.08782573 0.18224917 0.06706759
0003d0 89 62 69 be 81 3a c2 3d 15 dc 95 3c 18 a3 d1 bd
       -0.22791494 0.09483815 0.01829342 -0.10236186
0003e0 0d 32 c7 be 77 56 0c bf 79 4a 39 be b9 5c 56 3e
       -0.38905373 -0.54819435 -0.18094815 0.20933808
0003f0 de d9 81 3e c1 8b 15 3e 8c 28 0f 3e 06 b6 fa be
       0.25361532 0.14604093 0.13980311 -0.48966998

fc3.bias f4 [10]
000000 68 b5 69 3d 3f 2f a5 bd 3d f3 cb bd b9 99 08 3c
       0.057057768 -0.08065652 -0.099585034 0.008337432
000010 f8 0f 17 bd 3d 72 65 be 5a 2c ac 3d 22 2c fe bd
       -0.036880463 -0.2240686 0.08406897 -0.124107614
000020 6e 7b 85 3e 26 bf 10 3e
       0.26070732 0.14135417
